packages/ml-embedded-evaluation-kit/resources_downloaded/ad/ad_medium_int8.tflite (tflite, 493552 bytes, 12 tensors)

Conv2D;StatefulPartitionedCall/StatefulPartitionedCall/PartitionedCall_2/PartitionedCall/Conv2D i1 [192, 3, 3, 1]
-18 13 74 92 127 4 35 16
51 -45 127 -54 27 -90 -52 -17
2 -98 -1 26 -24 -117 -67 -43
-127 -94 32 61 44 47 37 11
-22 60 96 127 20 92 102 6
78 63 -52 -127 -108 50 -5 -6
126 52 55 127 -78 42 -101 -127
-109 2 -28 24 102 9 42 80
60 -7 127 100 -86 -24 -5 -61
69 -34 -19 -64 -29 21 127 -15
-82 6 72 18 -68 -28 80 -127
-126 -91 -81 -89 -114 26 -4 -40
127 106 75 0 -74 127 -126 -95
-114 48 3 19 15 -86 -105 127
35 -63 -91 -76 -122 -107 55 27
-127 -36 -11 -74 -52 14 -1 -6
127 -17 80 89 -32 -30 114 96
109 10 -22 16 41 127 -4 12
-9 4 14 35 127 83 -58 -12
10 70 29 86 90 35 127 0
108 65 37 34 68 46 127 70
-61 -61 -27 -50 -104 -60 127 45
37 37 34 -2 -76 -127 -72 43
-32 -1 -17 -61 81 -49 -66 -73
99 127 59 2 -15 44 7 -42
-39 -12 9 116 27 90 127 59
27 118 70 33 127 -2 100 33
-11 13 -2 -67 22 40 -127 3
116 63 90 127 -2 7 42 -103
-115 -94 -26 -68 -113 -83 -75 75
-127 -29 6 -118 90 -38 -95 53
75 -1 -127 -78 -77 -7 -48 -22
00000000: ee0d 4a5c 7f04 2310 33d3 7fca 1ba6 ccef
00000010: 029e ff1a e88b bdd5 81a2 203d 2c2f 250b
00000020: ea3c 607f 145c 6606 4e3f cc81 9432 fbfa
00000030: 7e34 377f b22a 9b81 9302 e418 6609 2a50
00000040: 3cf9 7f64 aae8 fbc3 45de edc0 e315 7ff1
00000050: ae06 4812 bce4 5081 82a5 afa7 8e1a fcd8
00000060: 7f6a 4b00 b67f 82a1 8e30 0313 0faa 977f
00000070: 23c1 a5b4 8695 371b 81dc f5b6 cc0e fffa
00000080: 7fef 5059 e0e2 7260 6d0a ea10 297f fc0c
00000090: f704 0e23 7f53 c6f4 0a46 1d56 5a23 7f00
000000a0: 6c41 2522 442e 7f46 c3c3 e5ce 98c4 7f2d
000000b0: 2525 22fe b481 b82b e0ff efc3 51cf beb7
000000c0: 637f 3b02 f12c 07d6 d9f4 0974 1b5a 7f3b
000000d0: 1b76 4621 7ffe 6421 f50d febd 1628 8103
000000e0: 743f 5a7f fe07 2a99 8da2 e6bc 8fad b54b
000000f0: 81e3 068a 5ada a135 4bff 81b2 b3f9 d0ea

Conv2D;StatefulPartitionedCall/StatefulPartitionedCall/PartitionedCall_6/PartitionedCall/Conv2D i1 [276, 1, 1, 192]
-83 43 69 -52 -22 87 115 66
-13 114 96 40 41 77 -72 3
32 -39 -56 -21 74 18 -94 -10
-82 107 49 94 65 56 -115 78
-91 52 -35 97 -29 -47 67 -12
-22 -13 12 86 72 -4 45 -99
-36 60 -86 -54 -34 76 74 -8
91 -93 -14 68 100 29 -64 45
-24 -44 41 -115 -4 -77 73 -13
72 -53 -90 -45 6 36 -74 88
-101 33 -102 103 -51 -70 -93 89
-8 -69 87 73 -36 -85 41 99
20 93 -23 18 -78 56 -101 -79
127 52 90 -59 17 -38 -70 23
113 -91 -45 -46 -63 51 -90 -10
-39 117 -22 -79 -64 -47 19 -83
-101 17 -87 -58 -83 28 -5 12
6 31 -111 -106 -119 24 -50 93
-74 -86 -115 -34 -36 73 34 40
55 21 -79 28 35 27 -29 -69
111 -35 -99 74 101 -36 -13 55
59 86 -34 44 -14 23 -75 -1
83 89 -100 14 22 44 39 111
58 3 -8 -9 -41 -84 -91 66
52 -65 -39 33 -24 84 53 -31
-64 20 67 40 42 93 -27 12
49 9 65 33 -98 -9 15 71
-80 99 -29 -43 55 -31 23 -9
-52 -66 85 38 65 32 -20 13
35 91 66 -81 -32 15 59 -32
1 71 8 85 -58 112 -39 70
-18 20 27 -30 -46 -24 104 -76
00000000: ad2b 45cc ea57 7342 f372 6028 294d b803
00000010: 20d9 c8eb 4a12 a2f6 ae6b 315e 4138 8d4e
00000020: a534 dd61 e3d1 43f4 eaf3 0c56 48fc 2d9d
00000030: dc3c aaca de4c 4af8 5ba3 f244 641d c02d
00000040: e8d4 298d fcb3 49f3 48cb a6d3 0624 b658
00000050: 9b21 9a67 cdba a359 f8bb 5749 dcab 2963
00000060: 145d e912 b238 9bb1 7f34 5ac5 11da ba17
00000070: 71a5 d3d2 c133 a6f6 d975 eab1 c0d1 13ad
00000080: 9b11 a9c6 ad1c fb0c 061f 9196 8918 ce5d
00000090: b6aa 8dde dc49 2228 3715 b11c 231b e3bb
000000a0: 6fdd 9d4a 65dc f337 3b56 de2c f217 b5ff
000000b0: 5359 9c0e 162c 276f 3a03 f8f7 d7ac a542
000000c0: 34bf d921 e854 35e1 c014 4328 2a5d e50c
000000d0: 3109 4121 9ef7 0f47 b063 e3d5 37e1 17f7
000000e0: ccbe 5526 4120 ec0d 235b 42af e00f 3be0
000000f0: 0147 0855 c670 d946 ee14 1be2 d2e8 68b4

Conv2D;StatefulPartitionedCall/StatefulPartitionedCall/PartitionedCall_10/PartitionedCall/Conv2D i1 [276, 1, 1, 276]
-100 -6 -58 -60 -79 4 0 -81
-60 -2 -9 -36 32 -8 2 -33
85 114 101 13 94 76 -63 -7
-27 -48 61 10 -97 -46 79 109
22 25 -79 21 -79 -47 91 -42
6 64 74 -32 72 -22 -51 67
-24 -24 -34 51 -78 28 -49 21
34 -40 -62 -22 -43 17 -83 78
80 85 58 23 13 -84 15 28
-73 5 -56 -17 -22 -1 36 -52
113 62 38 -21 -55 9 85 48
8 32 80 76 -47 10 -72 43
66 70 74 7 -55 -84 -86 88
-58 -37 -30 42 -74 -69 -39 -46
-102 -62 41 -55 -15 -68 3 -49
1 -30 -20 73 -47 79 -13 -20
38 -48 55 -14 -60 -72 8 47
-73 7 -9 28 -19 64 92 92
4 20 -24 -51 16 1 62 -53
-80 39 -62 18 76 42 -23 -61
34 -57 -84 79 63 70 4 -88
93 -57 -17 -54 -7 102 -8 81
-3 -6 11 62 18 -69 -50 -47
24 36 35 83 97 78 38 74
14 14 6 63 42 25 6 -54
-61 -19 -127 96 10 22 -55 -34
35 -35 9 -46 63 -60 43 -57
36 -3 45 51 -77 -89 78 6
88 86 -51 -69 105 61 -7 45
70 -91 98 -31 -51 64 90 -15
10 -73 80 -42 -39 23 22 -17
8 -26 -74 -43 76 -76 37 29
00000000: 9cfa c6c4 b104 00af c4fe f7dc 20f8 02df
00000010: 5572 650d 5e4c c1f9 e5d0 3d0a 9fd2 4f6d
00000020: 1619 b115 b1d1 5bd6 0640 4ae0 48ea cd43
00000030: e8e8 de33 b21c cf15 22d8 c2ea d511 ad4e
00000040: 5055 3a17 0dac 0f1c b705 c8ef eaff 24cc
00000050: 713e 26eb c909 5530 0820 504c d10a b82b
00000060: 4246 4a07 c9ac aa58 c6db e22a b6bb d9d2
00000070: 9ac2 29c9 f1bc 03cf 01e2 ec49 d14f f3ec
00000080: 26d0 37f2 c4b8 082f b707 f71c ed40 5c5c
00000090: 0414 e8cd 1001 3ecb b027 c212 4c2a e9c3
000000a0: 22c7 ac4f 3f46 04a8 5dc7 efca f966 f851
000000b0: fdfa 0b3e 12bb ced1 1824 2353 614e 264a
000000c0: 0e0e 063f 2a19 06ca c3ed 8160 0a16 c9de
000000d0: 23dd 09d2 3fc4 2bc7 24fd 2d33 b3a7 4e06
000000e0: 5856 cdbb 693d f92d 46a5 62e1 cd40 5af1
000000f0: 0ab7 50d6 d917 16ef 08e6 b6d5 4cb4 251d

Conv2D;StatefulPartitionedCall/StatefulPartitionedCall/PartitionedCall_14/PartitionedCall/Conv2D i1 [276, 1, 1, 276]
-99 107 -6 45 -2 -51 -42 79
-80 44 9 -69 -82 -40 61 -101
-58 -106 -56 -29 -7 3 0 -40
61 41 67 79 -56 77 48 -76
94 -36 -67 24 -58 -37 67 87
-92 84 32 -80 18 40 -8 11
76 -30 9 20 103 -66 -16 26
-17 -116 -104 72 -27 40 -96 -47
45 -19 50 -82 95 79 -55 27
-101 50 -91 -4 -18 -91 -108 11
-85 -38 -98 -24 37 -40 2 66
-54 110 -3 69 55 -72 -106 -32
-65 -8 -63 -94 53 -22 -74 92
15 -49 -91 -40 59 72 87 60
-127 40 -109 23 -32 -28 113 68
9 -104 -71 45 5 98 -108 -121
-35 -8 -80 -69 -110 -9 97 95
-31 64 -83 69 73 109 54 104
-33 30 41 -68 44 33 -28 -14
-43 9 -37 6 83 31 17 -17
-38 -89 72 30 88 97 -96 6
-87 -28 31 -95 2 -16 45 -11
6 -88 -96 20 51 38 84 -88
-90 87 79 -13 112 42 -34 -60
72 -43 25 43 112 -38 -17 43
85 29 78 50 71 -34 1 -84
35 71 -97 15 -23 -16 64 -7
48 26 -4 32 -26 -107 4 44
-33 109 -40 -64 15 51 62 -2
68 -98 -44 26 -70 -99 -14 44
85 38 75 -36 88 89 94 -63
-16 62 40 42 72 -77 13 -61
00000000: 9d6b fa2d fecd d64f b02c 09bb aed8 3d9b
00000010: c696 c8e3 f903 00d8 3d29 434f c84d 30b4
00000020: 5edc bd18 c6db 4357 a454 20b0 1228 f80b
00000030: 4ce2 0914 67be f01a ef8c 9848 e528 a0d1
00000040: 2ded 32ae 5f4f c91b 9b32 a5fc eea5 940b
00000050: abda 9ee8 25d8 0242 ca6e fd45 37b8 96e0
00000060: bff8 c1a2 35ea b65c 0fcf a5d8 3b48 573c
00000070: 8128 9317 e0e4 7144 0998 b92d 0562 9487
00000080: ddf8 b0bb 92f7 615f e140 ad45 496d 3668
00000090: df1e 29bc 2c21 e4f2 d509 db06 531f 11ef
000000a0: daa7 481e 5861 a006 a9e4 1fa1 02f0 2df5
000000b0: 06a8 a014 3326 54a8 a657 4ff3 702a dec4
000000c0: 48d5 192b 70da ef2b 551d 4e32 47de 01ac
000000d0: 2347 9f0f e9f0 40f9 301a fc20 e695 042c
000000e0: df6d d8c0 0f33 3efe 449e d41a ba9d f22c
000000f0: 5526 4bdc 5859 5ec1 f03e 282a 48b3 0dc3

Conv2D;StatefulPartitionedCall/StatefulPartitionedCall/PartitionedCall_18/PartitionedCall/Conv2D i1 [276, 1, 1, 276]
12 -15 -71 -15 72 91 -75 63
-1 -51 -5 43 15 -46 -69 -8
25 70 -13 -43 -17 19 -72 48
-72 -84 35 -21 3 30 -4 -9
45 -56 78 -14 77 36 34 32
-45 -13 62 57 -4 26 -47 79
39 -59 20 48 29 46 -78 22
1 -57 -15 -3 64 62 -29 2
70 49 34 25 -38 -44 8 -32
13 53 49 40 13 -48 -37 -10
-11 -38 -21 13 -53 35 9 -67
1 -62 -1 -49 72 -44 -72 36
6 -73 -64 -6 -70 -43 66 89
9 55 -18 20 113 9 57 28
-42 17 53 -38 -97 22 -66 23
7 18 79 -31 -15 -51 48 -19
-64 69 -48 40 53 -47 30 -61
39 35 -40 61 5 -85 -16 13
28 61 -30 -25 -38 55 9 -50
-31 -9 97 -35 -75 -7 5 -54
41 16 45 -59 -64 -93 47 29
81 52 32 -39 -88 -74 11 77
54 -53 60 41 -19 -44 12 -16
-61 84 -67 -26 -59 -10 -95 8
-74 -1 43 -37 5 -49 -13 47
-40 89 9 16 105 -9 -74 71
62 72 -75 2 15 -25 52 54
-5 24 43 -35 42 -1 -44 41
-58 -57 -16 15 7 4 31 68
-54 -31 -70 69 -97 -47 32 -6
66 -25 17 31 -33 -68 53 -27
-37 -69 -50 -44 -79 59 -81 50
00000000: 0cf1 b9f1 485b b53f ffcd fb2b 0fd2 bbf8
00000010: 1946 f3d5 ef13 b830 b8ac 23eb 031e fcf7
00000020: 2dc8 4ef2 4d24 2220 d3f3 3e39 fc1a d14f
00000030: 27c5 1430 1d2e b216 01c7 f1fd 403e e302
00000040: 4631 2219 dad4 08e0 0d35 3128 0dd0 dbf6
00000050: f5da eb0d cb23 09bd 01c2 ffcf 48d4 b824
00000060: 06b7 c0fa bad5 4259 0937 ee14 7109 391c
00000070: d611 35da 9f16 be17 0712 4fe1 f1cd 30ed
00000080: c045 d028 35d1 1ec3 2723 d83d 05ab f00d
00000090: 1c3d e2e7 da37 09ce e1f7 61dd b5f9 05ca
000000a0: 2910 2dc5 c0a3 2f1d 5134 20d9 a8b6 0b4d
000000b0: 36cb 3c29 edd4 0cf0 c354 bde6 c5f6 a108
000000c0: b6ff 2bdb 05cf f32f d859 0910 69f7 b647
000000d0: 3e48 b502 0fe7 3436 fb18 2bdd 2aff d429
000000e0: c6c7 f00f 0704 1f44 cae1 ba45 9fd1 20fa
000000f0: 42e7 111f dfbc 35e5 dbbb ced4 b13b af32

Conv2D;StatefulPartitionedCall/StatefulPartitionedCall/PartitionedCall_22/PartitionedCall/Conv2D i1 [276, 1, 1, 276]
-84 -19 61 -59 99 81 -67 -94
-56 39 -60 -85 -1 109 -92 4
-63 -21 32 -18 -60 -105 22 30
-77 31 64 -54 58 -90 -5 -103
-39 118 -14 52 -25 -3 -41 15
108 63 -95 78 77 50 -3 46
40 -70 102 94 -21 58 46 41
66 19 -111 13 51 -57 73 65
78 -31 107 60 -19 53 2 -18
26 -101 -67 -38 31 -83 3 12
-63 -14 -17 -35 -70 40 42 109
-39 43 -96 35 -32 -16 70 87
-8 -82 -44 -45 -81 55 30 -12
-32 23 97 -51 -82 -23 -32 -100
75 55 12 -14 -6 74 67 79
57 -1 -37 59 -98 68 -70 -8
75 95 70 21 28 72 102 48
-37 35 120 -7 6 48 -49 -25
23 43 -8 -75 38 -109 82 86
51 85 54 0 -91 56 -76 -53
44 83 -84 -6 20 -119 -55 -114
-15 -5 4 26 28 -99 75 -32
87 -112 -43 -111 71 31 25 -83
-11 104 -91 -27 39 84 45 21
69 -34 -108 117 -11 127 86 100
82 -35 -18 -88 -86 -17 -27 24
-77 -72 -31 -30 -46 110 -58 -94
51 -51 -50 44 -61 90 -62 -32
32 9 60 5 -34 16 -75 -101
-29 29 20 87 -79 15 -52 106
-54 66 -48 -59 58 -100 5 -15
-25 -9 9 -99 -100 -52 -21 -11
00000000: aced 3dc5 6351 bda2 c827 c4ab ff6d a404
00000010: c1eb 20ee c497 161e b31f 40ca 3aa6 fb99
00000020: d976 f234 e7fd d70f 6c3f a14e 4d32 fd2e
00000030: 28ba 665e eb3a 2e29 4213 910d 33c7 4941
00000040: 4ee1 6b3c ed35 02ee 1a9b bdda 1fad 030c
00000050: c1f2 efdd ba28 2a6d d92b a023 e0f0 4657
00000060: f8ae d4d3 af37 1ef4 e017 61cd aee9 e09c
00000070: 4b37 0cf2 fa4a 434f 39ff db3b 9e44 baf8
00000080: 4b5f 4615 1c48 6630 db23 78f9 0630 cfe7
00000090: 172b f8b5 2693 5256 3355 3600 a538 b4cb
000000a0: 2c53 acfa 1489 c98e f1fb 041a 1c9d 4be0
000000b0: 5790 d591 471f 19ad f568 a5e5 2754 2d15
000000c0: 45de 9475 f57f 5664 52dd eea8 aaef e518
000000d0: b3b8 e1e2 d26e c6a2 33cd ce2c c35a c2e0
000000e0: 2009 3c05 de10 b59b e31d 1457 b10f cc6a
000000f0: ca42 d0c5 3a9c 05f1 e7f7 099d 9ccc ebf5

Conv2D;StatefulPartitionedCall/StatefulPartitionedCall/PartitionedCall_25/PartitionedCall/Conv2D i1 [8, 1, 1, 276]
-9 61 -32 -44 74 -32 46 -24
-23 10 14 48 26 -18 78 -14
80 -68 3 -22 74 4 108 61
104 74 35 47 53 27 81 94
-2 -62 46 -25 -96 -78 29 -4
40 18 98 53 95 -12 81 -75
21 60 67 8 81 22 -34 81
69 -48 54 -18 65 27 10 -14
92 47 3 21 12 77 68 42
81 65 4 -26 62 65 45 8
-39 63 46 -76 -85 30 9 29
-11 57 -54 -29 -68 -107 72 55
99 15 101 -67 56 61 -77 -22
9 -23 20 100 70 71 76 35
-37 10 66 26 76 73 -19 49
-30 -5 -25 100 77 12 40 113
-121 -18 30 39 84 83 63 36
-29 65 -107 53 32 26 -17 -44
-42 -71 45 91 47 92 -59 113
64 -12 -10 -34 84 22 -38 73
61 118 17 26 17 102 7 50
75 -15 100 -57 42 118 17 94
-10 -28 81 -41 68 -61 60 53
3 12 80 72 76 -24 -72 -36
31 103 -11 -1 -20 27 -1 1
67 65 53 -5 25 57 13 -49
8 64 76 -3 21 -44 12 -3
-72 23 -44 29 18 -24 64 41
86 29 32 -14 46 75 -62 20
-101 -4 31 29 -17 77 38 78
67 -46 51 77 27 -15 2 34
84 -16 -15 -86 43 118 57 6
00000000: f73d e0d4 4ae0 2ee8 e90a 0e30 1aee 4ef2
00000010: 50bc 03ea 4a04 6c3d 684a 232f 351b 515e
00000020: fec2 2ee7 a0b2 1dfc 2812 6235 5ff4 51b5
00000030: 153c 4308 5116 de51 45d0 36ee 411b 0af2
00000040: 5c2f 0315 0c4d 442a 5141 04e6 3e41 2d08
00000050: d93f 2eb4 ab1e 091d f539 cae3 bc95 4837
00000060: 630f 65bd 383d b3ea 09e9 1464 4647 4c23
00000070: db0a 421a 4c49 ed31 e2fb e764 4d0c 2871
00000080: 87ee 1e27 5453 3f24 e341 9535 201a efd4
00000090: d6b9 2d5b 2f5c c571 40f4 f6de 5416 da49
000000a0: 3d76 111a 1166 0732 4bf1 64c7 2a76 115e
000000b0: f6e4 51d7 44c3 3c35 030c 5048 4ce8 b8dc
000000c0: 1f67 f5ff ec1b ff01 4341 35fb 1939 0dcf
000000d0: 0840 4cfd 15d4 0cfd b817 d41d 12e8 4029
000000e0: 561d 20f2 2e4b c214 9bfc 1f1d ef4d 264e
000000f0: 43d2 334d 1bf1 0222 54f0 f1aa 2b76 3906

FusedBatchNormV3;StatefulPartitionedCall/StatefulPartitionedCall/StatefulPartitionedCall_3/StatefulPartitionedCall/FusedBatchNormV3;depthwise;StatefulPartitionedCall/StatefulPartitionedCall/PartitionedCall_4/PartitionedCall/depthwise i1 [1, 3, 3, 192]
65 -94 7 62 -61 16 -127 54
66 0 127 66 -127 46 -53 36
-2 104 -86 -94 127 53 -74 39
-59 3 -80 -74 35 -44 8 2
-27 33 112 -5 -19 -107 109 -40
82 -23 -21 92 -64 103 -7 122
-41 -58 57 -98 50 74 -6 -65
80 -26 94 64 82 4 105 -27
-8 -99 -93 123 79 -127 -127 -58
93 34 -33 86 -127 12 -35 -82
-17 -82 67 -127 -95 -30 13 5
-2 17 -41 -42 -45 -10 50 40
48 -12 -127 -127 -40 127 -13 110
-19 97 -98 7 42 27 3 -37
56 -68 -24 -41 76 47 -5 127
-103 81 -41 76 -24 -127 -127 14
-39 -127 -53 124 25 -60 -24 -20
-1 4 -94 -127 -39 -127 -17 -15
47 -96 127 58 -21 -68 -69 -40
87 19 -120 92 110 -127 127 -68
-35 113 -90 -8 25 -127 -106 15
127 38 -44 -127 85 96 84 84
22 -127 11 -71 -124 53 -12 7
32 -73 -127 44 -12 -8 52 -80
70 1 22 9 -101 35 -21 127
120 -44 96 -10 -85 -74 -97 -42
85 102 -54 -127 54 127 -52 6
-19 -31 -127 -22 47 42 -127 -47
-62 61 -67 -103 25 -20 92 -48
-5 60 -127 94 20 127 -40 93
-105 -44 78 -79 1 103 39 26
-23 -127 20 107 80 127 93 127
00000000: 41a2 073e c310 8136 4200 7f42 812e cb24
00000010: fe68 aaa2 7f35 b627 c503 b0b6 23d4 0802
00000020: e521 70fb ed95 6dd8 52e9 eb5c c067 f97a
00000030: d7c6 399e 324a fabf 50e6 5e40 5204 69e5
00000040: f89d a37b 4f81 81c6 5d22 df56 810c ddae
00000050: efae 4381 a1e2 0d05 fe11 d7d6 d3f6 3228
00000060: 30f4 8181 d87f f36e ed61 9e07 2a1b 03db
00000070: 38bc e8d7 4c2f fb7f 9951 d74c e881 810e
00000080: d981 cb7c 19c4 e8ec ff04 a281 d981 eff1
00000090: 2fa0 7f3a ebbc bbd8 5713 885c 6e81 7fbc
000000a0: dd71 a6f8 1981 960f 7f26 d481 5560 5454
000000b0: 1681 0bb9 8435 f407 20b7 812c f4f8 34b0
000000c0: 4601 1609 9b23 eb7f 78d4 60f6 abb6 9fd6
000000d0: 5566 ca81 367f cc06 ede1 81ea 2f2a 81d1
000000e0: c23d bd99 19ec 5cd0 fb3c 815e 147f d85d
000000f0: 97d4 4eb1 0167 271a e981 146b 507f 5d7f

FusedBatchNormV3;StatefulPartitionedCall/StatefulPartitionedCall/StatefulPartitionedCall_7/StatefulPartitionedCall/FusedBatchNormV3;depthwise;StatefulPartitionedCall/StatefulPartitionedCall/PartitionedCall_8/PartitionedCall/depthwise;Conv2D;StatefulPartitionedCall/StatefulPartitionedCall/PartitionedCall_22/PartitionedCall/Conv2D i1 [1, 3, 3, 276]
-102 -127 -13 -99 -54 -69 59 53
-109 -127 -127 -33 -105 4 -69 127
-55 -4 -72 -78 -26 -83 20 -33
127 -23 -99 47 52 39 -57 39
-116 87 52 76 -72 30 -65 -27
-22 66 2 52 127 57 18 49
-102 -26 94 -11 8 30 0 -21
-91 -7 -127 52 -71 24 -108 -127
-94 0 -7 -13 -56 -14 -21 -27
-127 -17 34 37 80 -63 127 -70
45 50 46 96 -31 -47 -90 45
-6 -33 -57 22 49 -82 -60 -58
109 11 -127 127 115 -59 -27 -127
25 -43 -42 -69 -8 -114 -34 -24
-75 -76 -116 -73 16 -111 0 127
-3 127 54 -83 3 -53 7 -127
51 -51 37 -5 -75 79 -11 -33
-127 -1 13 -23 -80 -127 2 96
0 -54 -23 -39 61 14 30 -110
-10 -64 83 -96 -47 -3 -38 -24
127 18 16 -110 17 18 -24 -117
-36 -52 13 -46 50 97 -114 -32
30 127 16 79 127 28 45 126
-62 54 -114 40 101 -5 84 -26
-114 7 19 -25 -91 -10 42 -49
54 -127 95 -52 59 -127 -35 84
-25 -11 15 -10 15 -58 30 58
118 -12 -54 -12 -33 72 -23 -59
47 -50 -45 13 -32 12 127 -85
-96 47 38 -25 -119 127 39 -59
-127 68 -21 -85 -61 28 127 64
-89 -65 52 127 -127 -98 37 -14
00000000: 9a81 f39d cabb 3b35 9381 81df 9704 bb7f
00000010: c9fc b8b2 e6ad 14df 7fe9 9d2f 3427 c727
00000020: 8c57 344c b81e bfe5 ea42 0234 7f39 1231
00000030: 9ae6 5ef5 081e 00eb a5f9 8134 b918 9481
00000040: a200 f9f3 c8f2 ebe5 81ef 2225 50c1 7fba
00000050: 2d32 2e60 e1d1 a62d fadf c716 31ae c4c6
00000060: 6d0b 817f 73c5 e581 19d5 d6bb f88e dee8
00000070: b5b4 8cb7 1091 007f fd7f 36ad 03cb 0781
00000080: 33cd 25fb b54f f5df 81ff 0de9 b081 0260
00000090: 00ca e9d9 3d0e 1e92 f6c0 53a0 d1fd dae8
000000a0: 7f12 1092 1112 e88b dccc 0dd2 3261 8ee0
000000b0: 1e7f 104f 7f1c 2d7e c236 8e28 65fb 54e6
000000c0: 8e07 13e7 a5f6 2acf 3681 5fcc 3b81 dd54
000000d0: e7f5 0ff6 0fc6 1e3a 76f4 caf4 df48 e9c5
000000e0: 2fce d30d e00c 7fab a02f 26e7 897f 27c5
000000f0: 8144 ebab c31c 7f40 a7bf 347f 819e 25f2

FusedBatchNormV3;StatefulPartitionedCall/StatefulPartitionedCall/StatefulPartitionedCall_11/StatefulPartitionedCall/FusedBatchNormV3;depthwise;StatefulPartitionedCall/StatefulPartitionedCall/PartitionedCall_12/PartitionedCall/depthwise;Conv2D;StatefulPartitionedCall/StatefulPartitionedCall/PartitionedCall_22/PartitionedCall/Conv2D i1 [1, 3, 3, 276]
35 76 -87 80 -21 83 66 127
-37 -37 41 -16 -98 43 -50 -87
-32 7 112 -36 -14 -122 56 74
18 110 56 -29 -9 69 -21 -127
77 -2 51 68 -26 127 -127 -37
29 38 96 -104 -4 78 -51 -41
11 -25 61 13 -40 14 28 12
-50 -32 127 -65 -28 63 -24 122
-72 -70 -96 127 -71 -62 33 -106
-45 77 -26 -67 -84 -66 -40 -72
-127 -29 31 5 -69 -21 -81 106
23 15 127 127 -89 -127 59 9
18 21 -83 -24 -35 -65 -74 13
4 76 -41 1 -88 43 -42 7
127 74 32 27 14 -80 -104 112
-23 -30 35 127 -56 34 -76 -3
-127 -127 29 -107 105 -104 -9 -51
-124 -126 -127 52 -18 -30 -121 -92
-63 -96 -43 -21 49 -40 -95 -26
126 37 -110 127 -62 -33 -87 -3
52 87 48 -79 63 15 -79 -40
-92 -50 -80 -7 -88 31 -65 -39
-65 -78 61 -14 -86 109 27 -26
-122 86 -64 26 20 -120 -33 -102
-79 20 30 125 15 103 1 -8
63 -127 66 -3 -45 -60 -3 9
127 -64 23 -40 10 -70 -61 -18
20 -81 -17 127 127 -75 29 14
-58 18 -95 50 79 42 -3 -43
78 -99 -57 -15 28 -29 -17 3
57 -50 -63 -88 -64 13 95 -45
75 -61 -32 39 -35 -22 14 -94
00000000: 234c a950 eb53 427f dbdb 29f0 9e2b cea9
00000010: e007 70dc f286 384a 126e 38e3 f745 eb81
00000020: 4dfe 3344 e67f 81db 1d26 6098 fc4e cdd7
00000030: 0be7 3d0d d80e 1c0c cee0 7fbf e43f e87a
00000040: b8ba a07f b9c2 2196 d34d e6bd acbe d8b8
00000050: 81e3 1f05 bbeb af6a 170f 7f7f a781 3b09
00000060: 1215 ade8 ddbf b60d 044c d701 a82b d607
00000070: 7f4a 201b 0eb0 9870 e9e2 237f c822 b4fd
00000080: 8181 1d95 6998 f7cd 8482 8134 eee2 87a4
00000090: c1a0 d5eb 31d8 a1e6 7e25 927f c2df a9fd
000000a0: 3457 30b1 3f0f b1d8 a4ce b0f9 a81f bfd9
000000b0: bfb2 3df2 aa6d 1be6 8656 c01a 1488 df9a
000000c0: b114 1e7d 0f67 01f8 3f81 42fd d3c4 fd09
000000d0: 7fc0 17d8 0aba c3ee 14af ef7f 7fb5 1d0e
000000e0: c612 a132 4f2a fdd5 4e9d c7f1 1ce3 ef03
000000f0: 39ce c1a8 c00d 5fd3 4bc3 e027 ddea 0ea2

FusedBatchNormV3;StatefulPartitionedCall/StatefulPartitionedCall/StatefulPartitionedCall_15/StatefulPartitionedCall/FusedBatchNormV3;depthwise;StatefulPartitionedCall/StatefulPartitionedCall/PartitionedCall_16/PartitionedCall/depthwise;Conv2D;StatefulPartitionedCall/StatefulPartitionedCall/PartitionedCall_22/PartitionedCall/Conv2D i1 [1, 3, 3, 276]
96 -5 101 -18 -93 -23 40 127
15 40 14 83 -118 57 45 -1
-67 120 -66 -12 -80 -85 -70 -107
127 51 75 127 -109 -65 18 42
8 66 -68 45 109 -127 45 -8
124 17 63 91 -32 -26 70 -26
55 -110 102 25 -39 -78 -127 41
74 -127 21 -42 57 -34 87 65
40 127 -72 83 11 65 85 14
-40 127 -86 127 -102 127 79 -24
-6 46 102 -2 127 121 -122 -12
-127 -58 -69 1 52 18 -74 -127
-42 9 23 -73 -7 -32 -122 -32
83 9 -113 -9 -47 -45 60 96
60 -10 2 -2 21 23 -29 71
52 127 81 43 127 -45 95 1
-127 -53 -85 127 -31 -112 39 -127
53 8 99 88 -118 -5 31 112
127 36 -9 -52 -6 41 -49 -51
-20 127 -47 82 -18 -76 98 -78
-94 -64 -7 -56 124 80 -88 127
95 -127 110 -78 -39 127 -86 -28
-127 -58 -1 -118 -46 -92 -127 -48
-122 -65 38 127 21 101 -40 73
-85 25 60 -127 127 15 71 112
33 90 -22 -68 -36 -81 0 127
102 31 12 -53 -127 -23 45 93
-32 -36 21 -39 -61 -45 -27 -127
5 -100 23 -44 94 -28 -19 -57
52 90 -127 -57 66 -119 -127 39
111 -4 -62 20 -54 -100 74 -29
-127 -43 2 -96 -66 -127 -127 -30
00000000: 60fb 65ee a3e9 287f 0f28 0e53 8a39 2dff
00000010: bd78 bef4 b0ab ba95 7f33 4b7f 93bf 122a
00000020: 0842 bc2d 6d81 2df8 7c11 3f5b e0e6 46e6
00000030: 3792 6619 d9b2 8129 4a81 15d6 39de 5741
00000040: 287f b853 0b41 550e d87f aa7f 9a7f 4fe8
00000050: fa2e 66fe 7f79 86f4 81c6 bb01 3412 b681
00000060: d609 17b7 f9e0 86e0 5309 8ff7 d1d3 3c60
00000070: 3cf6 02fe 1517 e347 347f 512b 7fd3 5f01
00000080: 81cb ab7f e190 2781 3508 6358 8afb 1f70
00000090: 7f24 f7cc fa29 cfcd ec7f d152 eeb4 62b2
000000a0: a2c0 f9c8 7c50 a87f 5f81 6eb2 d97f aae4
000000b0: 81c6 ff8a d2a4 81d0 86bf 267f 1565 d849
000000c0: ab19 3c81 7f0f 4770 215a eabc dcaf 007f
000000d0: 661f 0ccb 81e9 2d5d e0dc 15d9 c3d3 e581
000000e0: 059c 17d4 5ee4 edc7 345a 81c7 4289 8127
000000f0: 6ffc c214 ca9c 4ae3 81d5 02a0 be81 81e2

FusedBatchNormV3;StatefulPartitionedCall/StatefulPartitionedCall/StatefulPartitionedCall_19/StatefulPartitionedCall/FusedBatchNormV3;depthwise;StatefulPartitionedCall/StatefulPartitionedCall/PartitionedCall_20/PartitionedCall/depthwise;Conv2D;StatefulPartitionedCall/StatefulPartitionedCall/PartitionedCall_22/PartitionedCall/Conv2D i1 [1, 3, 3, 276]
98 -96 -78 -21 110 -115 112 -79
14 -88 -27 -32 -31 58 106 -127
-91 6 66 48 -127 -126 -127 -126
-85 88 -94 127 -127 40 127 -112
8 110 127 -52 -127 8 124 28
-64 101 127 122 -127 106 105 -96
-127 -4 -104 91 -50 123 -1 -66
37 -17 72 63 -40 77 -53 -107
52 -127 -77 43 -116 41 -2 -49
72 63 93 -127 117 -73 127 -38
102 59 110 -119 127 -58 81 63
13 3 26 88 127 94 -40 -125
4 -127 113 23 85 77 -39 77
-42 -118 127 -55 8 -51 89 -5
-45 -116 127 74 35 69 -10 -127
39 -44 39 127 -55 -127 84 73
-46 52 -94 38 55 -46 114 5
-60 -65 26 -127 -127 -59 -19 81
-7 49 124 -127 -127 -67 -69 -64
127 102 17 -46 -98 93 55 80
88 123 33 -56 -44 127 -122 -127
-35 -127 24 -15 127 -127 87 20
86 -70 127 36 93 32 -6 84
45 -72 -127 32 -127 12 -35 -57
-127 -58 -84 -58 90 88 -127 2
104 -127 -103 112 -86 -105 -12 -124
-37 23 68 -32 107 81 12 127
95 54 99 5 -127 50 68 -106
-85 25 24 -80 58 -56 -17 127
22 50 127 122 88 -68 -127 -127
-127 13 -96 -96 96 84 -11 -126
-127 -127 105 -113 -7 127 -116 5
00000000: 62a0 b2eb 6e8d 70b1 0ea8 e5e0 e13a 6a81
00000010: a506 4230 8182 8182 ab58 a27f 8128 7f90
00000020: 086e 7fcc 8108 7c1c c065 7f7a 816a 69a0
00000030: 81fc 985b ce7b ffbe 25ef 483f d84d cb95
00000040: 3481 b32b 8c29 fecf 483f 5d81 75b7 7fda
00000050: 663b 6e89 7fc6 513f 0d03 1a58 7f5e d883
00000060: 0481 7117 554d d94d d68a 7fc9 08cd 59fb
00000070: d38c 7f4a 2345 f681 27d4 277f c981 5449
00000080: d234 a226 37d2 7205 c4bf 1a81 81c5 ed51
00000090: f931 7c81 81bd bbc0 7f66 11d2 9e5d 3750
000000a0: 587b 21c8 d47f 8681 dd81 18f1 7f81 5714
000000b0: 56ba 7f24 5d20 fa54 2db8 8120 810c ddc7
000000c0: 81c6 acc6 5a58 8102 6881 9970 aa97 f484
000000d0: db17 44e0 6b51 0c7f 5f36 6305 8132 4496
000000e0: ab19 18b0 3ac8 ef7f 1632 7f7a 58bc 8181
000000f0: 810d a0a0 6054 f582 8181 698f f97f 8c05
